convModel.pkl (torch, 885018 bytes, 22 tensors)

layer1.0.weight f4 [16, 1, 5, 5]
000000 c1 a3 4f 3d 6b 74 c5 3d 72 45 c2 3d 91 76 0a 3e
       0.050693277 0.096413456 0.09485902 0.13521792
000010 86 c4 ba bd 53 96 45 be 99 be 4e be ef c5 c5 3d
       -0.09119515 -0.19295625 -0.20189895 0.096568935
000020 b9 1a 22 bd 38 76 3d 3e 95 9d eb bd 35 70 01 3d
       -0.039576266 0.18502128 -0.11504666 0.03160115
000030 69 06 61 bd ee 66 96 bd 93 39 ad bd f7 41 39 3e
       -0.054937754 -0.07343851 -0.08458247 0.1809157
000040 20 07 43 be 23 d0 87 bd ab d7 27 be 6d 39 b1 3d
       -0.19045687 -0.06631496 -0.16390865 0.08653531
000050 42 78 3d 3e 7b ce 06 be 5f ad 80 3d 7e 38 ef 3d
       0.18502906 -0.13164704 0.06283068 0.11680697
000060 ea 9b 3c 3d e1 de 29 bd 6c 14 87 3d 09 40 6c be
       0.04604713 -0.04147232 0.06595692 -0.23071302
000070 47 97 60 3d 9c 02 f3 bc fa 5a 2e be 9c 41 0c be
       0.05483177 -0.02966433 -0.17026892 -0.13696903
000080 9b 44 97 3d c7 69 0c 3e 8f 5c 30 be 21 7a 3b 3d
       0.07386132 0.13712226 -0.17222808 0.045770768
000090 13 6d 3e be 22 2e 9f bd 02 f3 fa bd 25 87 5d 3d
       -0.18596296 -0.07772471 -0.12253381 0.054083962
0000a0 a5 b6 3b 3e 45 68 f3 3d 56 81 d3 3d 82 cc f6 bd
       0.18331392 0.11885122 0.10327403 -0.120507255
0000b0 d7 1d 2e 3e 5d df 19 3e a5 b1 93 bb 55 39 ef bd
       0.1700357 0.15026613 -0.004507261 -0.11680857
0000c0 6d 70 e7 3d 23 59 23 3e da 06 d2 bd 5f e4 d4 bb
       0.113007404 0.15951972 -0.10255213 -0.0064969505
0000d0 db 95 e0 bd 05 39 58 3d 53 2b e8 bd 3e 15 3e 3e
       -0.10966083 0.052788753 -0.113363884 0.18562791
0000e0 dd 1d 05 bd a0 8e 8d 3d 41 38 29 3e ea 81 a9 3d
       -0.032499183 0.06911969 0.16525365 0.08276732
0000f0 2b 16 e0 bd 95 31 2a bd f9 2b e5 3c 4a 6f f5 3d
       -0.10941728 -0.04155119 0.02797507 0.11984117
000100 3d 0f e1 bd f7 92 22 bd 2d d6 0e be 75 88 60 be
       -0.109892346 -0.039690938 -0.13948889 -0.21927054
000110 7e 33 c0 3d ff 52 fd 3c 85 a0 c9 bd fa e8 a9 3d
       0.09384821 0.030923365 -0.0984507 0.0829639
000120 d1 79 ab 3d 3b 94 8b ba a9 59 0e 3e ed 30 28 3e
       0.08372844 -0.0010649035 0.1390139 0.16424914
000130 5a e1 be bd ba 5d bb bd a0 39 cb 3d 48 11 5c be
       -0.09320326 -0.09148736 0.099231005 -0.21490967
000140 89 08 eb 3d 59 1a 57 3d 9c 44 99 bc 43 0a d9 bd
       0.11476237 0.05251536 -0.018709473 -0.105976604
000150 82 43 17 3c 4e c6 40 be 4e 90 e3 3d a9 41 93 3d
       0.009232404 -0.18825647 0.11111508 0.07190258
000160 09 2a 0b 3e e4 3f 41 3e d4 2a 78 3d d9 c3 4d be
       0.13590254 0.18872029 0.06058772 -0.20094241
000170 ab 8f 4d 3e 02 85 00 3e e2 6c 2c be 2f e9 3a be
       0.20074336 0.12550738 -0.1683841 -0.18253015
000180 23 f1 32 3c 4d 41 70 bd be 4f 48 3d 75 3a 44 bd
       0.010921749 -0.058656026 0.048904173 -0.04790731
000190 b6 b4 26 3e de 9e 03 3c 7d 5d 09 be 95 e4 14 be
       0.16279873 0.008033482 -0.13414569 -0.14540322
0001a0 d4 2e 33 3e 41 1d 1e be 03 93 1f be 54 f2 43 be
       0.17498332 -0.15440847 -0.15583424 -0.1913541
0001b0 60 5e bc bd 74 85 32 be 37 7a 22 be 9a df 0d 3e
       -0.09197688 -0.17433721 -0.15866934 0.13854828
0001c0 ed cb d8 3d 2b 58 4f 3e 15 ac 17 be 66 89 b2 bc
       0.10585771 0.20248477 -0.14811738 -0.021794032
0001d0 25 64 1b 3c 18 64 3d 3e 18 f9 02 3e af 65 e6 3d
       0.009484326 0.18495214 0.12790334 0.11249863
0001e0 56 f1 a6 3d 78 fb 51 3b 5f b3 a9 bd 1b 74 db bd
       0.081515 0.0032040756 -0.082861654 -0.10715505
0001f0 06 1d b9 3d 8e 0d 85 bc d2 ca e1 bd f6 dc 35 3e
       0.09038739 -0.016241815 -0.11025013 0.17760071
000200 79 c9 c7 bc 19 87 b5 bd d4 03 12 be a6 6e 66 3c
       -0.024388062 -0.088636585 -0.14259273 0.014064467
000210 c3 be f9 3c d2 63 4b 3c 41 20 5a bd b8 fa 09 be
       0.03048647 0.012413936 -0.053253416 -0.13474548
000220 a5 24 9b bd 95 5b 62 be 06 26 1e bd 4b 66 ff bd
       -0.07575349 -0.22105248 -0.03861048 -0.12470683
000230 c7 25 14 be 35 12 a8 bd 23 ec 8b bd d7 2d c1 3d
       -0.14467536 -0.08206598 -0.06832149 0.094325714
000240 f2 35 36 be 67 f3 e8 3d 11 a4 5c 3e 35 a3 3c be
       -0.17794016 0.1137455 0.21546961 -0.18421634
000250 5a 3e 22 3d 4d 61 a5 3c 62 e4 21 bc 79 f3 b6 bd
       0.039610244 0.020187998 -0.009881111 -0.089331575
000260 9f 4c 4a 3e 99 42 f7 3c d2 73 d2 bb 39 20 3d bd
       0.19755791 0.030183123 -0.0064224983 -0.046173308
000270 f9 e2 09 bd 44 ba e6 bc 2e 30 fa 3d 5b 6a eb 3d
       -0.033663724 -0.02816499 0.12216221 0.11494895
000280 e3 e3 b3 3d 42 ca d8 bd 79 d4 13 be 89 44 a7 3d
       0.087837 -0.105854526 -0.1443652 0.08167369
000290 d4 dc 16 3e 91 a3 2e 3e 31 96 d2 bd f1 f5 de bd
       0.14732677 0.17054583 -0.10282553 -0.10886753
0002a0 89 d3 22 be 47 2b 01 bc ca af 2b be f3 4b 2a be
       -0.15901007 -0.007883853 -0.16766277 -0.16630535
0002b0 bc 8e 99 bd 82 dc 10 3e 7d 71 65 3c a7 f8 26 bd
       -0.074979275 0.14146617 0.0140041085 -0.040764477
0002c0 e0 1e 35 be 6d ee a4 bc d2 0e b3 bd c0 eb 53 3d
       -0.17687559 -0.020133222 -0.08743061 0.0517385
0002d0 7c 01 7e 3d 86 27 16 3e 73 46 59 3e b4 5e fa bc
       0.062013134 0.14663514 0.2121828 -0.030562736
0002e0 25 fb 98 3c 44 6a 1d bd 58 64 26 3e d5 5b 71 bd
       0.018674443 -0.03843142 0.16249216 -0.05892547
0002f0 40 05 22 3e 2e ec 12 3e 9b 97 e8 bd ad 36 05 bc
       0.15822315 0.14347908 -0.113570414 -0.0081307115
000300 f7 f1 07 3e 98 b1 10 be 6a 40 45 bd ab 4f 49 be
       0.13275896 -0.14130247 -0.048157133 -0.19659297
000310 c6 01 27 3e dc 6e 72 3d 5e 0b 3f be 95 f4 5f bd
       0.1630927 0.059187755 -0.1865668 -0.05467661
000320 8b 80 ef ba 01 7c a7 bd 1c e5 5a 3e 6f 42 d8 bc
       -0.0018272562 -0.08177949 0.21376461 -0.026398866
000330 82 d0 02 3e ef 7f c1 3d 32 5d 02 be 7b 64 4c 3e
       0.12774852 0.094482295 -0.12730864 0.19960205
000340 fc 7a 91 3e 5a 81 9a 3d 08 fa 18 bd 80 47 49 3c
       0.28414142 0.07544203 -0.037347823 0.012285113
000350 62 7f 83 3d 3c 6d b6 3d 53 7a f0 bd 7d 12 2e 3e
       0.06420781 0.089075536 -0.117420815 0.1699924
000360 83 46 b4 bd 1f 4f d4 3d 3a 36 af 3d 10 61 c6 3d
       -0.088025115 0.10366654 0.08555265 0.09686482
000370 df 63 39 3e 4a c0 c3 bd 35 17 67 bd 36 8e 40 be
       0.18104504 -0.095581606 -0.056418616 -0.18804249
000380 28 3e aa 3d 32 9a ca 3d 58 23 03 bd 44 fe 86 3d
       0.083126366 0.09892692 -0.03201613 0.06591466
000390 2f df 11 be 69 92 dd 3b 3f b3 0a 3d 5b 41 50 3b
       -0.14245294 0.006761838 0.03386235 0.0031777236
0003a0 eb 00 29 be a8 bb 63 3d 2f b8 e1 bd 80 c1 dc 3c
       -0.16504256 0.055598885 -0.11021458 0.026947737
0003b0 62 a7 bd bd 8d 47 4f be 4b fc 53 bd 49 e5 58 3e
       -0.09260441 -0.20242138 -0.051754277 0.21181215
0003c0 65 d0 29 be 57 a0 03 be 20 03 1d 3e c0 c6 1d 3e
       -0.16583402 -0.12854134 0.15333223 0.15407848
0003d0 a9 35 08 bd 7d 91 75 bd 0b 5e 9d bd 80 70 92 bc
       -0.0332543 -0.0599532 -0.07683953 -0.01787591
0003e0 ad e3 49 bc bf 70 f5 3d 2e f8 5a bd e0 26 5a 3d
       -0.012322349 0.11984395 -0.05345934 0.05325973
0003f0 2c 9b 1a 3e e0 9d 23 be 0c 61 99 bc bd 07 2f be
       0.15098256 -0.15978193 -0.018723033 -0.17092796

layer1.0.bias f4 [16]
000000 6f cd 1b be 8b c7 2a 3d ed 1d 70 bd 57 48 85 3e
       -0.15215085 0.041694205 -0.05862229 0.26031753
000010 11 13 c5 ba 4f 61 06 bc e8 0f 9b 3d 97 ad b1 3c
       -0.001503559 -0.008201911 0.07571393 0.02168922
000020 c0 ea 42 be d3 e5 a8 bb 40 d2 9b bd 6c b6 d0 bd
       -0.19034863 -0.0051543503 -0.076084614 -0.10191044
000030 fc 57 c8 bc c8 ba 58 bd 1f c9 26 be 6c 1b 3b 3e
       -0.024456017 -0.052912503 -0.16287659 0.1827218

layer1.1.weight f4 [16]
000000 9d 11 82 3f ee e3 81 3f fd 1e 86 3f 78 6b 8a 3f
       1.0161625 1.0147684 1.0478207 1.0814047
000010 19 1a 84 3f a5 01 75 3f be 1a 85 3f 70 fc 8b 3f
       1.0320464 0.95705634 1.0398786 1.0936413
000020 a4 51 5b 3f bd c6 79 3f d7 29 6c 3f 70 b7 7a 3f
       0.8567145 0.97568876 0.9225134 0.97936153
000030 13 8e 8c 3f 72 cc 60 3f de e3 73 3f 8c a0 58 3f
       1.0980858 0.8781196 0.9526957 0.84619975

layer1.1.bias f4 [16]
000000 b2 68 94 bc 8a 7e 5e 3c 27 86 8c 3d 63 3f c1 3d
       -0.018116329 0.013579974 0.06861525 0.09435918
000010 9d 3a 37 bd 61 fb cc bd a7 4d 14 3d a8 7b af 3d
       -0.044733632 -0.10008884 0.036206868 0.085685074
000020 44 80 76 bd b7 fa de bd f1 e0 71 bd 3e 54 97 b9
       -0.060180917 -0.10887664 -0.05905241 -0.0002886373
000030 3f 0d a9 bd 41 bd b8 bd 1b ed 2c bd f3 be 16 be
       -0.082544796 -0.09020472 -0.04221831 -0.14721279

layer1.1.running_mean f4 [16]
000000 ee b3 2e be 81 1b 56 3d c3 80 59 bd b6 89 8a 3e
       -0.17060825 0.052272324 -0.053101312 0.2705819
000010 f2 6a 93 bd 1c 8a e2 be fb f9 41 3c c6 ce 8d 3d
       -0.071981326 -0.44245994 0.011839385 0.069242045
000020 02 2e 92 3e d3 84 2a be 5d fe 9e 3e a4 ba c5 bd
       0.28550726 -0.16652231 0.3105344 -0.096547395
000030 af 31 f3 bd 8a 1b 9f 3e 97 0f d0 bd 4b 29 78 3e
       -0.11874711 0.31075698 -0.101592235 0.24234502

layer1.1.running_var f4 [16]
000000 12 87 21 3b 88 bd a7 3b a2 22 35 3b 95 b2 05 3b
       0.0024647159 0.0051190294 0.002763905 0.0020400633
000010 0f 4a a8 3b 2c c9 5b 3d 29 3a ed 3b e7 d6 5a 3b
       0.0051357816 0.05365865 0.0072395992 0.0033392252
000020 60 ef 84 3d d8 85 33 3c 76 5e 42 3d b7 72 a2 3a
       0.0649097 0.010957204 0.047453366 0.0012393807
000030 65 90 ee 3b 93 be 2f 3d 83 21 8a 3b 92 d3 68 3b
       0.0072803968 0.042906355 0.0042154207 0.0035526496

layer2.0.weight f4 [32, 16, 5, 5]
000000 4b 5a 56 3d 26 d4 b2 bc ad c4 90 3d 1c 31 57 bc
       0.052332204 -0.021829676 0.07068763 -0.013134267
000010 48 2f d2 3c 0b 8a a3 bd 95 19 a8 bd 4c 26 ae bc
       0.025657311 -0.07985314 -0.082080044 -0.021258496
000020 f5 e2 07 bd 44 99 fa bb 0f 25 84 3d 74 5b 58 3d
       -0.033175427 -0.007647665 0.06452381 0.05282159
000030 fc 2e df bc b9 28 ad 3c c5 f5 87 bc 01 8d dd bc
       -0.027244084 0.021137582 -0.016596684 -0.027044775
000040 b0 11 35 3d 6b 72 b7 bc ed 02 a6 bd 11 c4 c0 3b
       0.04420632 -0.022393426 -0.08106027 0.005882748
000050 bd 2b 08 3d 56 b0 d9 bd 48 48 58 3d f7 62 dd 3b
       0.033244837 -0.106293365 0.052803308 0.0067561823
000060 35 7d 44 bd 3c 6b 07 bd 24 32 3c 3c a7 cd 2e bd
       -0.04797097 -0.03306125 0.011486564 -0.042676594
000070 ce 77 31 bd 83 05 37 bc 24 f4 06 bc e8 b5 0c bb
       -0.043327145 -0.011170748 -0.008236919 -0.002147073
000080 79 42 ca bc ae 37 30 bd fa 40 bd bd 1d a0 aa bc
       -0.0246899 -0.04302185 -0.09240909 -0.020828301
000090 e0 f5 72 3a f3 8a 54 bd 26 0c b5 bc fa 6e f8 bc
       0.00092682056 -0.051890325 -0.02210052 -0.030326355
0000a0 41 4c d7 bc e5 7d af 3c 76 6e 26 bd 18 a4 f6 3b
       -0.026281478 0.021422336 -0.040632688 0.0075268857
0000b0 9a 44 85 bd ca 2b 06 3c 22 ed fd bc e0 ef f8 3c
       -0.06507225 0.008189151 -0.030996863 0.030387819
0000c0 4b 62 49 3a af e8 89 bd 8b 32 8d bd 9c da ed bc
       0.00076821883 -0.06733834 -0.06894406 -0.029034905
0000d0 41 56 a7 bb 67 45 e4 bc aa 51 1d bd 5b 31 0c 3c
       -0.005106718 -0.027865125 -0.03840796 0.008556689
0000e0 14 32 a5 bd f9 36 94 bd 5e 35 b5 3b 42 b6 a9 3c
       -0.08066192 -0.07237048 0.0055300435 0.02071679
0000f0 1b f5 0d bc 97 34 aa 3c ec 27 f6 3b 54 f2 03 bc
       -0.008664395 0.02077703 0.0075120833 -0.008053381
000100 a9 85 4e bd a3 d6 6f bd 75 1a ef bc e2 87 10 bc
       -0.050420437 -0.058554303 -0.02918742 -0.0088214595
000110 33 a4 b3 3a 41 57 38 bd 58 09 52 bc ab e4 6f 3b
       0.0013705551 -0.045005087 -0.012819611 0.0036604803
000120 f9 63 2a 3d be 1e 82 3c 41 77 cc bb f8 e4 56 3d
       0.041599248 0.0158838 -0.006239802 0.052464455
000130 77 3a 2d bd 70 48 33 bd ad 9b fb bc b5 25 eb 3a
       -0.042292085 -0.043770254 -0.03071388 0.0017940315
000140 02 9e 14 3d c0 c1 a2 3d a2 25 84 3c a0 1b 45 bc
       0.0362835 0.07947111 0.016131226 -0.012030512
000150 18 b8 aa bb 24 76 e4 ba a0 c3 97 3c 6b fd 4f bd
       -0.005209934 -0.0017430228 0.018525898 -0.050778788
000160 8e ae 18 bd 60 73 2d bd 39 e1 5b 3d ba 65 cc bb
       -0.037275843 -0.04234636 0.053681586 -0.0062377127
000170 90 c6 10 bc 41 97 01 bd 7c 2a 54 bc 81 13 a3 bb
       -0.0088364035 -0.031638388 -0.012949582 -0.0049766903
000180 9e 7c 6b 3c 6a fe d2 bd 06 54 50 bd d6 c7 60 bd
       0.014372973 -0.10302432 -0.05086138 -0.05487808
000190 94 59 27 3d cf 7c a5 bd 3f 11 cc bb bf f0 6e bd
       0.040856913 -0.08080446 -0.006227642 -0.058335062
0001a0 39 3a 67 bb 90 71 8c 3d a7 ad 5b 3d 98 39 b8 3c
       -0.0035282506 0.06857598 0.053632405 0.0224884
0001b0 53 f5 1b bd 60 25 0c bc 3f eb 89 bd 23 1a 17 bc
       -0.038075756 -0.008553833 -0.06734323 -0.00922254
0001c0 1e ea 84 3a 89 66 8d bc 15 17 a4 3c 3d 45 10 3d
       0.0010140573 -0.017260807 0.020030538 0.03522228
0001d0 a1 3c 48 3c 78 46 8f 3d cd 64 ab bc 42 1e 01 bc
       0.012221486 0.06995863 -0.020922089 -0.007880749
0001e0 e3 40 45 bd e7 5b 48 bd ad c3 ec 3c a7 a6 b1 bd
       -0.048157584 -0.04891577 0.0289019 -0.086743645
0001f0 28 87 49 bd 29 71 38 3d 18 9f 57 3d 7d 42 5a bb
       -0.04920116 0.045029793 0.052641958 -0.003330379
000200 d4 f6 9a 3d 1c b8 76 3d e3 bc 66 3d ad 7a 95 3d
       0.0756661 0.060234174 0.05633248 0.07298789
000210 de 2b 33 3d 26 f2 99 3d b3 27 ce bc 45 c9 9d 3c
       0.043743007 0.07516889 -0.025165414 0.019261012
000220 9f a5 ae 3d 25 12 7c 3d 3f c7 99 3d bb c3 e1 3c
       0.085276835 0.06154074 0.07508706 0.027559152
000230 ee 48 e3 ba 01 b2 49 3d 64 ab 3a 3d dd 12 fb 3d
       -0.001734046 0.049242023 0.045573607 0.12259457
000240 d6 8d 81 3d 30 b4 b1 3c b9 0d 0d 3d 7e 21 3a ba
       0.06325881 0.021692365 0.034436915 -0.00071003276
000250 f1 1b cb 3d 3e d3 c6 3d 0d 32 1d 3d 85 e8 7f 3d
       0.09917439 0.0970826 0.03837781 0.062477607
000260 c8 92 bc 3c fd 19 29 3d 30 43 8d 3d 00 ad 76 ba
       0.02301921 0.04128455 0.068975806 -0.0009409934
000270 74 8d 33 bb b4 33 54 bc 01 5f 80 3d 9f 61 37 3d
       -0.0027397545 -0.01295178 0.062681206 0.044770833
000280 6f 89 a1 bb 89 46 d0 3c 4f 9f 36 3d 67 a1 3c 3d
       -0.0049297134 0.025424259 0.044585522 0.046052363
000290 e5 00 69 3d 1f 0b 2e bd 8d bf 59 3d f6 5b b2 3b
       0.05688562 -0.042491075 0.053161193 0.0054430915
0002a0 1c 00 f9 3c b9 c0 cf 3c 44 2b a4 bc ae 64 5e bc
       0.03039556 0.025360452 -0.020040162 -0.013573809
0002b0 12 6c 1d bd 94 5d 15 3d 76 5a 07 3d f7 21 f0 bc
       -0.038433142 0.036466196 0.033045255 -0.02931307
0002c0 67 ab 24 bd 5a bd 8b bd e6 8a bf 3a bf a3 4a bd
       -0.040202525 -0.06823225 0.0014613539 -0.049472567
0002d0 8f de 9c 3c 6f 73 87 3c b2 97 9c bc 44 1e d8 bc
       0.019149093 0.016534535 -0.019115303 -0.02638162
0002e0 c6 3f 63 3b f0 c9 f7 3b 0c e6 ad 3c 86 8a 2f 3d
       0.0034675463 0.0075619146 0.021227859 0.042856716
0002f0 83 bf e7 bc 6a d7 34 bd 4a 56 72 3c 4d 7f 82 3d
       -0.028289562 -0.044150747 0.014791081 0.06371937
000300 e4 3f bd 3c 29 48 37 bd da d6 84 3c 6d b4 27 bc
       0.023101754 -0.04474655 0.01621573 -0.010235888
000310 4c 80 64 3d d6 f2 b0 bc 2e 21 04 bd 09 72 db 3a
       0.055786416 -0.021600168 -0.032258205 0.0016742359
000320 19 2f d4 bc 17 2b 87 3c 09 a7 8a bb 29 d2 14 bc
       -0.025901364 0.016500039 -0.004231338 -0.009083309
000330 7d 2a 29 bd a5 ec 04 bd 44 90 10 3c 7b c1 1e bd
       -0.041300286 -0.032452244 0.008823458 -0.038758736
000340 13 53 f7 3b 1a 15 40 bc 48 44 04 bd 2c f0 1e bd
       0.007547745 -0.011723781 -0.03229168 -0.038803264
000350 c4 e9 25 3c 81 df a9 bd 23 60 ac bc 70 20 ed bc
       0.010126535 -0.08294583 -0.021041935 -0.028946131
000360 fd 8a ed bc a9 9b 2f bd e7 de 95 3b a6 ec 8e bc
       -0.028996939 -0.04287306 0.004573691 -0.017446827
000370 6e 86 24 bd 42 68 c4 bc 37 86 e5 b9 e1 2f 46 bb
       -0.040167265 -0.023975495 -0.00043778282 -0.003024094
000380 aa 0d 81 3b bc 49 0a bd a0 b6 fc 3c 30 74 64 3d
       0.0039383965 -0.033761725 0.030848801 0.055774868
000390 ca 99 23 3d a1 78 bb bc 14 b2 0b 3b 50 2e aa 3c
       0.039941587 -0.022884669 0.002131586 0.020774037
0003a0 b1 ff 7e 3d 81 ee 8a 3d 57 b1 12 3c ca ca 5d bb
       0.062255565 0.06783772 0.008953414 -0.0033842796
0003b0 a0 7a 8c 3d 53 4f 99 3c f6 eb 83 3d 8c 9b 37 3c
       0.06859326 0.018714583 0.0644149 0.011206519
0003c0 d8 c0 62 3d b5 07 08 3d 8a ea 7b 3d 73 b4 32 3b
       0.05535969 0.033210475 0.06150297 0.00272682
0003d0 02 01 52 bc d8 4c 44 bd cd bb 58 3d 16 2c 1e 3d
       -0.012817623 -0.047924846 0.052913476 0.038616262
0003e0 43 5f 92 3d 47 e6 97 3d 90 eb 4e 3c 90 c7 07 bc
       0.07147076 0.07416969 0.012629405 -0.0082873255
0003f0 16 cd 8e bd 41 59 93 bd 8b d4 41 b9 00 c8 06 bd
       -0.06972711 -0.07194758 -0.00018485093 -0.03290558

layer2.0.bias f4 [32]
000000 66 98 f3 3c ef 50 fe bc c9 b2 02 bd 57 22 ea bc
       0.029735755 -0.031044452 -0.031908784 -0.028580828
000010 4d 76 c4 3c 03 cc 17 3c 5f eb 14 bd c7 0b bc 3c
       0.023982191 0.009264949 -0.03635728 0.022954835
000020 7a 35 e9 3c 89 d2 73 bc 85 09 b3 bc e5 d9 81 bc
       0.028467882 -0.014881738 -0.021855125 -0.01585097
000030 03 37 8b 3c 5d 10 c3 bc 95 10 64 3c cf 6d e6 3c
       0.016994005 -0.023811514 0.013919969 0.028128533
000040 55 52 46 3c cb 51 1c bd f2 38 a7 bc 6a 4b 12 3d
       0.01210459 -0.03816394 -0.020412896 0.03571645
000050 b1 2f 16 bd 5b 0c dd bc a6 79 7b 3d 03 5b bd bc
       -0.036666576 -0.02698343 0.06139531 -0.023114687
000060 26 31 96 3b f9 ff 23 3c 65 ad 0e 3d 01 b8 14 bd
       0.0045834957 0.010009759 0.03483333 -0.036308292
000070 b6 49 1d 3d 5b e9 d4 bc 68 77 17 3b e4 40 03 bd
       0.038400374 -0.025990179 0.0023111943 -0.032044306

layer2.1.weight f4 [32]
000000 3f 09 6b 3f e9 b6 8c 3f 83 6b 7b 3f 3a de 80 3f
       0.91810983 1.099332 0.98210925 1.0067818
000010 43 e4 7b 3f 81 45 87 3f be 91 87 3f 6f ee 6f 3f
       0.98395175 1.0568086 1.0591352 0.93723196
000020 3d 63 81 3f e6 60 80 3f a0 8c 76 3f 54 70 73 3f
       1.010841 1.0029571 0.96308327 0.95093274
000030 52 28 80 3f e1 2f 83 3f e5 91 79 3f 47 9f 82 3f
       1.0012305 1.0248986 0.9748824 1.0204858
000040 91 a0 7c 3f e3 08 7e 3f 07 23 6c 3f 6a 08 87 3f
       0.98682505 0.9923231 0.9224095 1.0549443
000050 e4 d6 82 3f f0 0d 75 3f ae b3 81 3f 4a 20 84 3f
       1.022183 0.9572439 1.0132959 1.0322354
000060 ce ec 81 3f 70 4b 64 3f 97 99 81 3f d4 cf 82 3f
       1.0150392 0.8917761 1.0124997 1.0219674
000070 22 16 73 3f ed 21 76 3f e0 03 6c 3f a9 c8 84 3f
       0.94955647 0.96145517 0.9219341 1.0373737

layer2.1.bias f4 [32]
000000 07 15 09 be 26 c8 b6 bd 53 12 13 be d4 96 60 bd
       -0.13386928 -0.08924894 -0.14362459 -0.05483134
000010 ed d6 a7 bd c8 a6 12 be f3 bd d6 bd 1a 55 d6 bd
       -0.08195291 -0.14321434 -0.10485449 -0.104654506
000020 d5 8b 1e be f7 ce 80 bd 88 03 bd bd 5d 1d 18 be
       -0.15483029 -0.062894754 -0.09229189 -0.14854951
000030 0f 47 b1 bd 63 4c df bd 92 37 f7 bd f1 7a 07 bc
       -0.086561315 -0.109032415 -0.12071146 -0.008269058
000040 9a e4 ea bd 61 1d b3 bd 21 bc 0e be 84 12 9f bc
       -0.114693835 -0.08745838 -0.13938953 -0.019418009
000050 c2 e4 e7 bd 5d 59 d4 bd 48 de e8 bd f6 9e 88 bd
       -0.11322929 -0.10368607 -0.11370522 -0.066709444
000060 46 91 1c bd d1 26 fe bd 6b 46 d7 bd d7 f6 a1 bd
       -0.03822448 -0.124097474 -0.10511478 -0.07908409
000070 9e 1c 76 bd 75 86 03 be ce 8a 0b be 11 92 d2 bd
       -0.060085885 -0.1284426 -0.13627169 -0.10281766

layer2.1.running_mean f4 [32]
000000 14 60 74 bf 73 f7 85 bf 33 ae 0d bf 37 70 99 bf
       -0.95459104 -1.046614 -0.5534393 -1.198737
000010 0f 70 8c bf bb ee 1d bf 2c 1f a9 bf c1 33 8d 3e
       -1.0971698 -0.616924 -1.3212638 0.27578548
000020 50 8a e9 bf 39 22 11 bf ad ee 27 bf d5 28 b1 be
       -1.8245335 -0.56692845 -0.65598565 -0.34601465
000030 74 f4 36 bf 7a 0b 6c bf 3e 1b 12 bf 8a 20 21 bf
       -0.71466756 -0.9220501 -0.5707282 -0.62940276
000040 e2 88 97 bf 8c af 11 bf 80 17 c1 be 40 7e ca be
       -1.1838648 -0.5690849 -0.37713242 -0.39549446
000050 f8 87 23 3e a3 af 56 bf ba 08 2f bf 39 8a 0b bf
       0.15969837 -0.8386175 -0.6837269 -0.54507786
000060 48 09 47 bf d1 fe 2e bf 76 f4 0f bf 5a ef 77 be
       -0.7774854 -0.6835757 -0.5623239 -0.24212399
000070 52 47 84 be 37 59 f1 bf 67 45 5b 3f 3a 38 72 bf
       -0.25835663 -1.8855351 0.85652775 -0.94617045

layer2.1.running_var f4 [32]
000000 2b f9 39 40 90 a1 a5 3f 87 8b 82 3f a7 9f 7f 3f
       2.905833 1.293993 1.019883 0.99852985
000010 cb 5d ad 3f af 3e 68 3f 2f 75 6c 3f b1 ac 05 40
       1.3544248 0.9072065 0.9236631 2.0886652
000020 9e a4 00 40 04 bc a1 3f 83 e5 11 3f bf 72 a0 3f
       2.0100474 1.2635503 0.5699083 1.2535018
000030 2b b6 74 3f 74 b5 3d 3f 73 e5 47 3f 6c 51 20 3f
       0.95590466 0.74105 0.78084487 0.6262424
000040 6f c2 86 3f ca f9 23 3f 9e af 8b 3f 25 0e 30 3f
       1.0528086 0.6405302 1.0912969 0.6877158
000050 13 68 34 3f af d5 06 40 30 e9 07 3f 81 06 86 3f
       0.70471305 2.1067922 0.5309019 1.0470735
000060 39 dd 55 3f cd a7 90 3f 60 20 94 3f 70 25 a2 3f
       0.83540684 1.1301209 1.157238 1.2667675
000070 8d 73 32 3f 92 c6 0f 40 7a e2 d6 3f ff b8 ab 3f
       0.69707566 2.2464948 1.6787865 1.3415831

layer3.0.weight f4 [48, 32, 5, 5]
000000 b8 9c 06 bc e7 78 ae ba e4 27 71 3a a3 03 a8 bc
       -0.008216076 -0.0013311178 0.00091993646 -0.020509547
000010 2c 69 e9 3c db c9 2b bd a0 48 f8 bc ff 7d 21 bd
       0.028492533 -0.04194055 -0.030308068 -0.0394268
000020 b2 cb 06 bc 72 b9 85 3c da 45 86 bc d3 94 a1 bb
       -0.008227276 0.016323779 -0.01639073 -0.0049310713
000030 33 8a 1a bc 88 05 82 3c d6 89 3b bd de 71 87 3b
       -0.009432363 0.015871778 -0.045785747 0.004133447
000040 b4 e8 8d 3c 82 14 ec bc 92 91 53 bc e5 12 49 bc
       0.017322876 -0.028818373 -0.012913125 -0.012272571
000050 4c c2 fa 3c ac 88 f9 3c c4 5a 23 3d e5 45 bc 3b
       0.030610226 0.030460678 0.039881483 0.0057456368
000060 33 4a 1e bc a2 02 fb 3a 4d b5 d1 3c ce 66 e6 3a
       -0.009661245 0.0019150565 0.025599146 0.0017578246
000070 b2 b5 77 bd c6 55 da bc d3 98 96 bc 7f 5a d9 3c
       -0.060476013 -0.026652228 -0.01838342 0.02653241
000080 ef 5d 04 bd fc 0f 0b ba d1 a2 22 bb 24 e2 cb 3c
       -0.032316145 -0.0005304811 -0.0024816284 0.024888106
000090 fc 72 0f 3d bd e1 42 3d d4 e8 b5 3c d2 1a 29 bd
       0.035021767 0.047578562 0.022205748 -0.041285343
0000a0 02 0a 69 3d 7c 02 da bc 95 64 b8 bc 8b 58 fa bc
       0.05689431 -0.026612513 -0.022508899 -0.030559799
0000b0 72 04 b3 3c 54 4e 26 bd 38 68 5f 3d 22 14 ce 3c
       0.021852706 -0.040602043 0.05454275 0.025156084
0000c0 cf c2 c0 3a 25 05 0e bd b5 4c 16 bc c3 e0 b2 3c
       0.0014706495 -0.034672875 -0.009173562 0.02183569
0000d0 f6 d0 50 3d b9 0f 24 bd f1 f9 6d 3c 78 a3 23 bd
       0.05098053 -0.040054057 0.014524923 -0.039950818
0000e0 7f 7e 49 3d 14 36 13 bd 05 20 3a bc 1d 58 2f bd
       0.0491929 -0.035940245 -0.011360173 -0.04280864
0000f0 09 ab bf 3c eb 11 da ba c6 86 bd 3c d8 a0 18 bc
       0.023396986 -0.001663742 0.023135554 -0.009315692
000100 22 1d 00 3d 9a ac c3 bc 48 08 1c 3d 33 3a c2 3c
       0.031277783 -0.023886014 0.038093835 0.023709392
000110 d6 51 31 3c a9 14 ee 3c d1 41 b1 3c 21 c8 b6 3c
       0.010822734 0.029062586 0.021637829 0.022312226
000120 7f b7 30 bd 34 39 71 3b 22 d0 f4 bc 8a 74 46 3c
       -0.043143746 0.0036807777 -0.029884402 0.012112746
000130 df 5f c9 3d 71 f2 e5 3a 0c 64 61 3c 9b 82 8c bb
       0.09832739 0.0017543567 0.013756763 -0.0042880303
000140 05 e4 15 bb 11 2f 74 3c 76 ee c1 bc 82 dc 0e bd
       -0.0022871506 0.0149038 -0.023673277 -0.03487826
000150 29 46 2a bc bc b4 14 3d f5 8e be bb 92 55 7c 3c
       -0.010392704 0.036305174 -0.0058153816 0.015401261
000160 24 0a 6e 3d b5 14 04 bd 30 d3 d7 3c 94 5d 3a 3b
       0.05811514 -0.03224631 0.02634582 0.0028437125
000170 b8 05 40 bd c7 1b 89 bd 42 ba 78 3c d8 fd 21 bc
       -0.046880454 -0.06694751 0.015181126 -0.009887181
000180 57 52 96 bd b4 2b 95 bc dc c4 3f b9 c2 a4 0c bd
       -0.07339924 -0.018209316 -0.00018288515 -0.034336813
000190 ff c8 be 3c 38 9e 72 bc 96 c6 9a 3d 9f 73 e5 bc
       0.023289202 -0.01480823 0.075574085 -0.028009234
0001a0 72 70 82 bd 7f f7 50 bd 06 9f 3c bd 49 11 20 bc
       -0.063691035 -0.05101728 -0.046050094 -0.009769746
0001b0 76 39 27 3b 95 ec 3e 3d 3f 9a d7 bc 54 7d d3 bc
       0.0025516427 0.04661234 -0.026318667 -0.025816597
0001c0 a5 de 01 3d 85 47 86 3b f4 20 46 bc c9 93 c0 bc
       0.03170647 0.0040978813 -0.012092818 -0.02350797
0001d0 17 b4 24 3a a7 94 c6 3b 22 73 92 3d 28 fa 3b bd
       0.0006282939 0.006060201 0.07150866 -0.045892864
0001e0 5d bb f5 3c ca b6 41 3c 81 f2 73 3d e8 c3 63 bd
       0.029996568 0.011823365 0.05955744 -0.055606753
0001f0 43 34 9e bd 8e 41 28 bd 50 33 ae bd a0 c4 d8 3c
       -0.07724812 -0.041078143 -0.08505881 0.026460946
000200 45 f7 93 bb 2e 56 8b bb 1f c6 78 3d 9c c4 4a 3d
       -0.004515561 -0.004252217 0.060735818 0.049503908
000210 51 2d 12 3d 6b 55 30 3d 45 c3 b0 bc 3a cc e7 bc
       0.03568775 0.04305021 -0.021577487 -0.028295625
000220 b6 82 3e bd 9b 5d b8 bc b4 ba e9 bc 11 84 9c bc
       -0.046511374 -0.022505572 -0.02853141 -0.019105943
000230 33 66 5f bd 41 fe 23 bd 9e a5 90 bc 7c a6 73 bd
       -0.054540824 -0.040037397 -0.017657097 -0.059484944
000240 b9 1d 31 bd b1 68 9f 3b f4 ad b1 bc 26 10 05 3d
       -0.043241236 0.004864775 -0.021689393 0.032486103
000250 51 1a 52 3c 1e 6e 05 3c 88 53 ab 3d 5e e0 6d 3d
       0.012823657 0.00814393 0.08365542 0.0580753
000260 7c e9 12 bc 63 f6 2d 3c ce 96 c8 3c 4e 2a 3f 3d
       -0.0089668 0.010617825 0.024485972 0.046671204
000270 5c f7 8e 3d ac 82 09 bc 89 32 94 3c 73 1d 95 3c
       0.06980774 -0.008392971 0.018090503 0.018202519
000280 7b e3 3a 3d 1b a3 7a 3b fe 57 95 3c 4b 00 6e 3d
       0.0456271 0.003824419 0.018230435 0.05810575
000290 2c 42 02 bd 6e 1f 5c bd fa 06 25 bc ab 15 42 bd
       -0.031801388 -0.05374091 -0.010072464 -0.047383945
0002a0 c4 9b 82 bd 98 3e 17 bd 90 ba 63 bd 9b 1b 18 bc
       -0.06377366 -0.03692493 -0.05559784 -0.009283925
0002b0 a8 cb d4 bc 54 2c 64 bc c6 83 0a bd cb 1e 2f 3d
       -0.025976017 -0.013926584 -0.033817075 0.042753976
0002c0 e9 62 27 3d 2e 3f 1e 3a c7 64 1d 3d 14 e9 13 bc
       0.040865812 0.0006036636 0.038426187 -0.009027738
0002d0 fa 79 da 3c 41 21 06 bd aa ff e7 bc 41 3d 1c bd
       0.026669491 -0.032746557 -0.028320152 -0.038144354
0002e0 28 39 ad bc 9c 2e 2a bd b4 ae 25 3d 25 0e 12 3d
       -0.021145418 -0.041548356 0.040449813 0.03565802
0002f0 06 60 50 3d 06 5c 06 3d b9 2d 0c bc 61 55 d0 3b
       0.050872825 0.032802604 -0.008555823 0.006357834
000300 55 c6 26 3c c1 6a 5e bc 24 4c c8 b9 6d a0 08 3c
       0.010179122 -0.013575257 -0.00038203702 0.00833903
000310 4c f3 3c 3d 6b a5 29 3d 8f 31 c8 bb 52 25 11 bc
       0.046130463 0.04141752 -0.0061094235 -0.0088589955
000320 51 47 f8 bc 21 13 0b bd 11 04 46 bc a3 fa e0 bc
       -0.030307444 -0.03395379 -0.01208593 -0.027463263
000330 eb dc d5 3c 4d 48 d8 3c c4 8b 72 3c 05 14 ac bc
       0.026106318 0.026401663 0.0148038305 -0.02100564
000340 23 4c fa bb da d6 08 bd d0 78 72 3b 2d 0d 4b b9
       -0.0076384707 -0.033408023 0.003699828 -0.00019364497
000350 c2 cb 9a 3c d3 19 2e bd cf 41 c2 bc 30 42 68 bb
       0.018895987 -0.042505097 -0.02371302 -0.0035439841
000360 8d 43 89 3d 89 1e ca bd 20 6f a5 bd 8a e7 6b bd
       0.067023374 -0.09869105 -0.08077836 -0.05759386
000370 da bd 80 3d 5b 45 17 3d a4 95 11 3d 97 0f 15 3c
       0.06286211 0.036931377 0.0355431 0.009097955
000380 e1 3e c1 3c 49 de 5d bc 60 62 0e bd 30 b0 68 39
       0.023589553 -0.013541766 -0.034761786 0.00022190879
000390 19 a6 87 3c e4 b4 2c bd 45 e5 84 3d a6 ad c7 bc
       0.016558694 -0.0421647 0.06489042 -0.024374794
0003a0 8f 9e f6 bc 10 95 38 bd c2 55 db bd 84 e8 db bc
       -0.030104904 -0.045064032 -0.107097164 -0.02684427
0003b0 cf 21 51 ba 66 ab 65 3c a2 fb a5 ba 45 7e c8 bc
       -0.0007977755 0.014017915 -0.0012663493 -0.024474273
0003c0 69 63 82 3c 80 76 0b bd d0 8b c6 bc 4c 23 3c bd
       0.015916543 -0.034048557 -0.02423659 -0.0459321
0003d0 13 ce 57 bd 7c 83 0f bc de a2 ca 3c e7 4d f4 3c
       -0.052686762 -0.008759376 0.024735864 0.029822303
0003e0 96 40 0a 3d 8a 35 a5 3d 3d d3 20 3d af 18 63 3c
       0.033753 0.080668524 0.039263953 0.0138608655
0003f0 2e 78 76 bc 63 bd 69 bb eb 1e 99 bb d5 aa a9 3c
       -0.0150433015 -0.0035665862 -0.004672875 0.020711342

layer3.0.bias f4 [48]
000000 4c 2e 04 bd 1d d6 20 3d 54 74 8e bc 5c 67 58 3c
       -0.032270715 0.039266694 -0.017389454 0.013208237
000010 b3 1a f3 bc 94 74 1e 3d 47 f0 67 3c 0c 49 0f 3d
       -0.029675817 0.038685396 0.014156408 0.034981772
000020 56 54 90 3c 2b 29 39 bc d8 3a 0a 3d 78 cf 8e 3b
       0.01761834 -0.011301319 0.033747524 0.0043582283
000030 ad 2c 1b 3c a8 2e 74 3b 2f ab 66 3c 51 e6 a0 bc
       0.009471101 0.0037259255 0.014078899 -0.019641073
000040 94 79 13 3c 86 0b 85 3a 97 ef e1 3b 88 9e 0f bd
       0.009001154 0.0010150529 0.0068950164 -0.035063297
000050 5e e7 7a 3c 37 18 19 3c 77 3f 6f bb 3b 17 61 3c
       0.015313951 0.009344152 -0.0036506334 0.013738449
000060 04 8a e2 3c 0a a7 fe bb 40 f5 1b 3b 81 d2 c4 3b
       0.027653702 -0.0077713775 0.0023797303 0.0060065393
000070 a8 c5 a6 3c 5d 6b a5 3c 8c cc ee bc 05 49 fb 3b
       0.020357922 0.020192796 -0.02915027 0.0076686167
000080 e6 53 0a 3c 05 97 7f bb 0b 74 3f 3c 78 b1 a5 3a
       0.0084428545 -0.0038999927 0.011685382 0.0012641391
000090 8c 48 b4 3c 41 1a 22 3c 20 5d f2 3b 04 b2 92 bc
       0.02200725 0.009893955 0.0073963553 -0.01790715
0000a0 d1 ed 95 3c 35 f5 89 bc 5e 23 15 3c f9 73 01 bd
       0.018301876 -0.016840557 0.0091026705 -0.03160474
0000b0 a1 6e 54 bb c2 4a f0 bb a3 e2 08 bc 05 c4 c4 bb
       -0.0032414573 -0.0073331306 -0.008354816 -0.0060048127

layer3.1.weight f4 [48]
000000 b9 5a 83 3f 2a 27 7b 3f 1f 99 76 3f 27 28 7f 3f
       1.0262061 0.98106635 0.96327394 0.9967064
000010 3b 08 77 3f 53 6e 73 3f a7 95 77 3f 4b c8 7b 3f
       0.96496934 0.95090216 0.96712726 0.983525
000020 33 2c 7a 3f 8a 3f 77 3f 94 2e 74 3f 63 a1 7d 3f
       0.9772369 0.9658133 0.9538357 0.9907438
000030 fe 41 7b 3f a0 d9 78 3f f8 c0 76 3f 85 18 7b 3f
       0.9814757 0.9720707 0.96388197 0.9808429
000040 89 ce 80 3f d4 2c 80 3f c3 f9 7d 3f 7c 88 7a 3f
       1.006303 1.001368 0.9920923 0.9786451
000050 36 34 81 3f 04 b4 7b 3f f4 e0 80 3f ff 0e 6f 3f
       1.0094059 0.9832156 1.006865 0.9338226
000060 24 7d 7a 3f a7 c3 71 3f f5 f5 7c 3f c9 ae 72 3f
       0.978472 0.94439167 0.988128 0.9479795
000070 2f b2 7a 3f bb d0 75 3f 28 03 76 3f d8 5c 7a 3f
       0.97928137 0.9602162 0.96098566 0.9779792
000080 db b3 6c 3f 75 24 85 3f 6f 17 80 3f b8 fd 75 3f
       0.9246194 1.0401751 1.0007151 0.9609027
000090 14 5f 79 3f f3 ac 6d 3f 01 56 78 3f 50 f5 7a 3f
       0.974107 0.92842025 0.9700623 0.9803057
0000a0 3a e1 80 3f d2 70 80 3f 3c 2f 7f 3f ed 77 7f 3f
       1.0068734 1.003443 0.9968145 0.9979237
0000b0 56 77 82 3f 79 9c 83 3f fe 1b 81 3f 55 64 84 3f
       1.0192668 1.0282127 1.0086668 1.0343119

layer3.1.bias f4 [48]
000000 1c b6 42 bd d9 97 3b bd 2d f8 a7 bd 68 6f 5b bd
       -0.047536954 -0.04579911 -0.08201633 -0.053573042
000010 d1 83 1f be ed d9 0b be 12 6a f2 bd 07 e3 1f be
       -0.15577628 -0.13657351 -0.118366376 -0.15613948
000020 ce a3 d4 bd 39 d1 e3 bd 67 92 16 be c2 a8 0c be
       -0.10382806 -0.111238904 -0.14704286 -0.13736251
000030 ec 5e 74 be b0 6e c2 bd 47 3d 69 bd 89 2b 8f bd
       -0.23864335 -0.09493768 -0.056943204 -0.069907255
000040 e0 35 4b bd 3b 08 02 be 6c c8 5c be 42 ff 51 bd
       -0.049611926 -0.12698452 -0.2156083 -0.051268823
000050 9e c1 23 be 89 fc 86 bd b1 49 15 bd b1 b4 58 be
       -0.15991828 -0.06591136 -0.03644723 -0.21162678
000060 24 85 80 bd dd 1d 8f bd b6 68 9d bd 4e 76 9f bd
       -0.062753946 -0.06988118 -0.07685988 -0.07786237
000070 68 c7 63 be 50 15 45 be 5b e5 54 be 85 2c 4e be
       -0.22244036 -0.19246411 -0.20790617 -0.2013417
000080 ec 92 3e be a7 42 3e be 7a 3d 90 bd 4d 47 be bd
       -0.18610734 -0.18580113 -0.07042976 -0.09290943
000090 8b f0 5f be e8 3c 32 be 21 60 87 bd 8b 33 06 be
       -0.21869104 -0.17406046 -0.06610132 -0.131056
0000a0 1c b4 ca bd 42 93 39 be 12 23 06 be f1 79 32 be
       -0.098976344 -0.1812258 -0.13099316 -0.1742933
0000b0 c7 df 41 be 6b a5 05 be 67 42 ff bc f2 72 bf bd
       -0.1893302 -0.13051383 -0.031159593 -0.09348096

layer3.1.running_mean f4 [48]
000000 d9 36 8d bf a5 60 b5 bf 4a ef 0c c0 5e 5b e2 bf
       -1.1032363 -1.4170119 -2.202105 -1.7684133
000010 c9 f3 02 c0 f9 5b 24 c0 9b 7a 16 c0 0e 80 0b c0
       -2.0461295 -2.5681136 -2.3512332 -2.1796908
000020 07 e8 0b 3f 97 ff 86 bf 1b db 04 3d bb 34 91 bf
       0.5465092 -1.054675 0.032435518 -1.1344217
000030 fd 9a 90 3f df d4 29 bf 46 66 03 c0 53 cf 9f bd
       1.1297299 -0.6634044 -2.0531173 -0.07803216
000040 38 76 e1 bf 43 63 2c be 17 f9 2e 3f ac 57 5c 3f
       -1.7614202 -0.1683474 0.6834883 0.86071277
000050 5e 89 60 bf 08 e6 09 be f6 df a3 be a2 f4 32 bf
       -0.87709606 -0.13466656 -0.32006806 -0.6990453
000060 f3 1a 7e bf 5c 7a 3f c0 40 9a 5c bf a7 45 98 3f
       -0.9925987 -2.9918432 -0.86172867 1.1896256
000070 f6 e1 57 bf 3e a8 56 bf e1 a5 da be 6d 57 b7 bf
       -0.84329164 -0.8385047 -0.4270468 -1.4323555
000080 19 b0 a8 bf 08 69 10 c0 4e 8e 6b bf 60 7f f2 bf
       -1.3178741 -2.2564106 -0.92014015 -1.8945122
000090 05 58 3d bf 93 92 ba 3f c4 97 aa bf d5 95 9a bb
       -0.7396243 1.4575981 -1.3327565 -0.0047175684
0000a0 67 30 45 bf 01 23 fc 3c b0 94 55 bf 9a 14 77 bf
       -0.7702698 0.03077841 -0.83430004 -0.9651581
0000b0 ac 68 df bf c5 f7 d5 3e f7 fa 3e 3f 77 1d 51 bf
       -1.7453818 0.41790596 0.7460169 -0.81685585

layer3.1.running_var f4 [48]
000000 3e 0a 37 3f 51 cd 8f 3f b0 71 83 3f 5f 08 a2 3f
       0.71500003 1.1234533 1.026907 1.2658805
000010 39 0c 7b 3f 53 2f 7c 3f 68 b4 68 3f 2a bb 62 3f
       0.98065525 0.9850971 0.9090028 0.8856684
000020 53 73 79 3f de 69 8e 3f 52 07 40 3f 3e f7 52 3f
       0.97441596 1.1126058 0.7501117 0.8240851
000030 d8 0a 65 3f 4e 10 8b 3f d2 00 e0 3f 8a 92 6e 3f
       0.8946967 1.0864351 1.750025 0.9319235
000040 5c 2b 72 3f 15 85 9d 3f 75 aa 6a 3f 21 b1 88 3f
       0.9459741 1.2306238 0.91666347 1.0679055
000050 bb 57 23 3f 80 0a 86 3f 83 47 6f 3f ef e0 65 3f
       0.6380574 1.0471954 0.93468493 0.89796346
000060 71 fb 70 3f 10 a7 e5 3f ad 4d 29 3f 2a 76 96 3f
       0.9413367 1.7941608 0.6613415 1.1754811
000070 d1 8e 8c 3f e4 4a 63 3f f0 0e 6e 3f 81 32 9b 3f
       1.0981084 0.8878615 0.9299154 1.2124788
000080 15 b2 7d 3f 79 e1 38 3f f8 79 81 3f 42 65 c1 3f
       0.99099857 0.72219044 1.0115347 1.5109026
000090 9b 50 85 3f 6a f0 c2 3f 5f cd 63 3f d2 54 4c 3f
       1.0415224 1.5229619 0.88985246 0.79816926
0000a0 02 a2 5d 3f 0e 31 62 3f 73 9c 9c 3f 30 1e 5a 3f
       0.8657533 0.883561 1.2235245 0.8520231
0000b0 f2 b3 42 3f 03 34 78 3f 42 6b 56 3f 63 2c 54 3f
       0.76055825 0.96954364 0.8375741 0.8288023

fc1.weight f4 [192, 768]
000000 4a fe 07 3d 02 b4 3e bc ca f8 83 bc 79 0d 68 bd
       0.033201493 -0.011639597 -0.016109843 -0.056653474
000010 af 13 a1 bb 4a c5 48 3b 01 ed bd bc 1a 6c a8 b9
       -0.0049156765 0.0030635172 -0.023184301 -0.00032124
000020 82 ae 95 bc 88 bd bf 3c 9c 53 f9 3a 71 37 0a 3c
       -0.018271688 0.023405805 0.001902211 0.00843607
000030 d9 92 1e bd 4d 71 44 bd a2 38 c9 bc be 20 21 3d
       -0.038714264 -0.047959615 -0.024563137 0.039337866
000040 a7 d5 03 bc c3 25 09 3d c6 d1 0b 3c 77 f8 ed bc
       -0.008046544 0.033483278 0.008533901 -0.029049141
000050 ce 25 aa bc 15 d9 45 bc 1a 3a 95 3c 7d ee bc bb
       -0.02076998 -0.012075682 0.018216182 -0.0057657347
000060 e1 e2 a9 3b f6 96 12 3d c5 a5 c6 bb b7 19 ae bc
       0.005184517 0.0357885 -0.0060622417 -0.021252496
000070 44 bf 2b 3c 37 db f8 ba 79 0e 92 3c 7f 5d 5a 3d
       0.010482613 -0.001898623 0.017829167 0.05331182
000080 37 1b 1a bc 94 64 3b bc 11 29 a8 bc ce 70 01 3d
       -0.009405903 -0.011437554 -0.020527394 0.03160172
000090 8b 9e 63 3c e5 4a 26 bc c7 fd 1c bd 5e 95 dd 3c
       0.01389278 -0.010149692 -0.03832796 0.027048763
0000a0 b6 49 06 bd 7d 08 64 bd e4 5d 42 bb 09 f6 95 bc
       -0.03278514 -0.055672158 -0.0029658014 -0.018305795
0000b0 22 8f 06 3d ce c4 20 bc 38 28 09 3d 8a 7e a9 bc
       0.032851346 -0.009812547 0.03348562 -0.020690221
0000c0 91 8b 42 3c 36 98 f6 3c 2f e2 37 3c ab 4c 14 3d
       0.011874096 0.030101877 0.01122336 0.03620593
0000d0 ae ec b0 3b 88 fd 31 3c 77 c2 54 bd 36 9e 21 bd
       0.005399308 0.010863669 -0.05194327 -0.039457522
0000e0 18 ce 44 bc 1a 2c 15 bd a1 13 3d bd d7 81 81 bc
       -0.012012027 -0.03641901 -0.046161298 -0.015808983
0000f0 8e 4d 8f bb ab af f0 3c cc 40 67 bc 87 72 52 bc
       -0.004373259 0.02938064 -0.01411457 -0.012844688
000100 26 b2 b2 ba 73 21 a8 3c 29 09 23 bc d4 07 2d bd
       -0.0013633415 0.020523762 -0.009950914 -0.042243794
000110 12 3e 95 3c 12 5a 6b bc 42 29 2c bc 57 be a4 bc
       0.018218074 -0.014364736 -0.0105078835 -0.020110292
000120 6a 43 5b 3c 8b 36 03 bc a6 a4 04 3d 63 4f 21 bd
       0.013382772 -0.0080086095 0.032383583 -0.03938235
000130 60 7a aa 3c 3e de 9d bc 73 30 63 3c 82 16 b4 bc
       0.020810306 -0.019271012 0.013866532 -0.021983389
000140 ad b9 d3 b8 45 6d 1b 3b 15 40 e6 bc 0a 75 d1 3c
       -0.00010095849 0.0023716253 -0.028106729 0.025568504
000150 cf e6 7d 3c df d6 bc 3c 5a a1 ab bc 8e 8a 16 bd
       0.015496924 0.023051677 -0.020950962 -0.03675323
000160 91 b8 1b 3c ec e8 cb bc 88 cb 75 bd c9 da b1 3b
       0.009504453 -0.02489134 -0.060008556 0.0054276926
000170 76 4d 09 bd 15 3b 3e 3d 87 5b e8 3c 6f 03 c0 bc
       -0.033521138 0.046443064 0.028363956 -0.023439137
000180 aa cf 8c 3c a7 cc f4 bc 52 e0 1a 3d a8 a4 11 3c
       0.017188866 -0.029882742 0.037811585 0.008889355
000190 47 44 00 3a 0d 4c 52 3d 53 57 f1 3c 4a 29 9b bc
       0.00048929866 0.05134206 0.029460585 -0.018940587
0001a0 7d 62 10 3d 01 0e 0b bd cb cc 22 bd f4 cb 6a 3b
       0.035250176 -0.033948902 -0.039746087 0.0035827132
0001b0 3a 02 c2 3c 74 75 07 bd f1 50 11 bd 70 c5 91 3c
       0.023682702 -0.033070996 -0.035477582 0.01779434
0001c0 f5 01 37 3d 7e 3d 87 bc 12 d0 25 bd d2 0a 79 bd
       0.0446796 -0.016508814 -0.040481634 -0.060801335
0001d0 43 16 f6 bc 14 61 51 bc f0 44 07 bd 56 a5 cc bc
       -0.030039912 -0.012779493 -0.03302473 -0.024981182
0001e0 73 12 ef bc d2 6d d6 bc 6a d9 75 bb 1f f7 14 3d
       -0.029183602 -0.026175413 -0.0037513622 0.036368486
0001f0 f5 51 93 3c d3 4f ac 3c 43 1c 11 bd 22 a8 8c bc
       0.017983416 0.021034157 -0.035427343 -0.017170016
000200 23 2f 72 3c 48 43 8b bc 85 98 b8 bc 85 a2 1a 3d
       0.014781746 -0.016999856 -0.022533664 0.037752647
000210 f0 09 16 3d 08 1b c5 bb 42 69 9e bc 31 cb 9d bc
       0.03663057 -0.0060151853 -0.0193373 -0.019261928
000220 57 62 22 bd c1 20 5d bb 1e ce a8 3c 13 60 ed bc
       -0.039644565 -0.0033741447 0.020606097 -0.028976476
000230 a2 61 85 bb 8d 7d aa 3c 4c a4 a9 bc 9a f8 a1 bc
       -0.0040704766 0.02081182 -0.020708226 -0.019771863
000240 f0 f5 e5 bc 97 76 d1 bc e2 50 df 3b ee 65 a4 bc
       -0.028071374 -0.025569243 0.006815062 -0.020068135
000250 2a c4 21 bd 5d b3 04 bd c2 52 75 bc 07 b1 a5 bb
       -0.039493717 -0.032397617 -0.014973344 -0.0050565037
000260 4f e3 04 3d ed 3c f0 3c ce 5a c7 3c 99 64 69 bd
       0.03244334 0.029325927 0.024335291 -0.056980703
000270 a2 93 02 3d 47 29 25 bd 8a 42 8a bc 40 fa aa 3b
       0.031879075 -0.04032257 -0.016877431 0.0052178204
000280 a2 28 82 3b 4b 00 48 3d 07 21 ab 3a 9b 78 bb bc
       0.003972129 0.048828404 0.0013056108 -0.022884658
000290 19 4a 7b bc a6 4d 1b bc 8c 31 13 bc f3 9b 4a 3a
       -0.0153374905 -0.009478962 -0.008983981 0.0007728927
0002a0 52 95 3e bd a5 38 1d bd 21 cb 8e 3b 15 14 18 3d
       -0.04652912 -0.0383841 0.004357711 0.037128527
0002b0 ba 6f e3 bb 6d 7c d5 3c cb 40 83 3c d4 a4 08 3c
       -0.006940809 0.026060307 0.016022107 0.008340079
0002c0 31 0e 91 3b 31 3f 80 3c 62 ab c0 bc 62 01 0b bd
       0.0044267406 0.015655132 -0.023519222 -0.033936866
0002d0 65 72 d3 bc a7 fc 26 3b 69 53 94 bb 09 c2 90 bc
       -0.025811384 0.0025480182 -0.004526545 -0.017670648
0002e0 f1 f1 94 3c 3e 6b d4 3c c6 65 9e 3c ea 97 5c 3d
       0.018181773 0.025930043 0.019335639 0.053855814
0002f0 7c bc 24 bc 93 ce de 3c 96 19 20 bd 9a 39 71 3c
       -0.010054704 0.027198112 -0.0390869 0.014723206
000300 b2 3d 84 3c 8c c4 3e bd 37 a9 0e 3b 58 f2 ad 3c
       0.0161427 -0.04657416 0.002176834 0.021233723
000310 64 f3 ab bc 51 66 e9 bc df 04 18 bc 51 18 12 bd
       -0.020990081 -0.028491171 -0.009278505 -0.03566772
000320 61 47 ff 3c 35 7f bc 3c 56 e8 22 bd d2 1f 4a bc
       0.031161966 0.023009876 -0.039772354 -0.012336688
000330 30 58 ce 3c 46 98 09 3d 60 ea 89 3c 6b 2e fc bc
       0.025188535 0.033592485 0.016835392 -0.030783853
000340 ea 2b f9 bc e9 ba 27 bd 39 ce 6b bc 7e 82 c2 bc
       -0.030416448 -0.040949736 -0.014392429 -0.023743864
000350 af e8 3d bc c7 3f ec b9 cf 1e 56 3c 06 d4 0d bd
       -0.011591121 -0.00045060946 0.013068869 -0.03462603
000360 4b 1e 40 ba 3c 71 a7 bc 1f 96 ba 3c 9b 98 d8 bc
       -0.0007328733 -0.020439737 0.022776661 -0.026439955
000370 5a 78 b3 bb 06 cc 9f ba ac ad 5c bc 32 d4 99 3b
       -0.0054769935 -0.0012191541 -0.013469141 0.004694485
000380 9d 61 02 bd d2 fd d2 bc 43 b0 b3 3c 73 dc 94 bc
       -0.031831373 -0.025755797 0.021934634 -0.018171525
000390 4d a8 30 bd bf c6 18 bc 40 b8 b2 bc 85 1e a2 39
       -0.043129254 -0.0093247285 -0.021816373 0.00030921787
0003a0 16 f6 99 bb 9a 09 af 3c f4 8a 11 3a 1b 73 87 bc
       -0.004698525 0.021366883 0.00055520167 -0.016534379
0003b0 c7 a3 7a bc 5e c2 d6 3c 09 0d 12 3c d1 31 e0 bc
       -0.015297837 0.026215728 0.008914241 -0.027367504
0003c0 60 f7 ba 3c 36 7a e8 bb b0 73 0b bd 59 6d c2 3c
       0.022823036 -0.007094647 -0.034045875 0.023733782
0003d0 eb 42 10 3d 89 33 c1 3b 8b 3e 9d 3c 8f 43 18 bc
       0.035220068 0.005896036 0.019194862 -0.009293451
0003e0 cf ba 9b 3c 0c 48 5e 3c cb b7 2e 3d bb fd cb bc
       0.019009976 0.013566982 0.042655747 -0.024901262
0003f0 96 c4 13 3c 43 bb a8 bc 75 7f 6a 3c a4 7b fa bb
       0.009019038 -0.020597106 0.014312615 -0.0076441336

fc1.bias f4 [192]
000000 5c 27 6c 3c f3 e9 b0 bc 1f c3 0c 3d e1 cd 3f 3c
       0.014413681 -0.02159593 0.03436577 0.0117068
000010 de 23 18 bd 5c 33 ff 3c 64 80 2c bb 79 ad f4 3c
       -0.03714358 0.03115242 -0.0026321644 0.029867874
000020 fd f9 73 3c 77 12 7b bb dd 4f b8 3a a5 3c dc bb
       0.014891145 -0.0038310566 0.0014061887 -0.0067210966
000030 82 99 5e bc cc 15 aa bc fb f5 12 bd 86 d9 cb 3c
       -0.013586404 -0.020762347 -0.035879117 0.024883997
000040 e1 5c 29 3c 5b 71 ee bb 4f 80 be 3c 28 84 b0 3c
       0.010337085 -0.0072766966 0.023254542 0.021547392
000050 a1 9f c0 3b 57 05 94 3b e0 8d 11 3d 81 88 b6 bb
       0.0058784042 0.004517238 0.035535693 -0.0055704718
000060 56 c3 5c 3c 4d 71 19 bc 29 d0 c3 bc 66 1c a3 bc
       0.013474306 -0.009365392 -0.02390297 -0.019911002
000070 d9 67 ca 3b fe cc 40 3c bd 3a b6 bb 74 e3 01 bd
       0.0061769304 0.011767624 -0.0055612014 -0.031711057
000080 56 f0 e7 3c 74 3a 00 bd fb 39 a5 bc b1 f8 a3 bc
       0.028312843 -0.031305745 -0.020169249 -0.020016046
000090 50 f6 77 bc bc eb e0 3c f1 23 b6 3c ec 28 9c bc
       -0.015134409 0.027456157 0.022233935 -0.019062482
0000a0 32 85 1d bd 11 bf ca bc 1f 3a 3c bc 68 4f 9c bc
       -0.038457103 -0.02474931 -0.0114884665 -0.019080833
0000b0 05 d1 bb 3b e0 75 b7 bc d6 17 bf bc 1e 87 25 bd
       0.005731704 -0.022395074 -0.023326796 -0.04041206
0000c0 a0 01 87 3c 87 8a 1d bd d1 8c 1c 3a f2 a8 5a 3c
       0.016480267 -0.038462188 0.0005971911 0.013345944
0000d0 17 d8 1a 3c 7c 1c 83 3c 05 f3 4d 3c 89 60 03 3d
       0.009450934 0.016004793 0.012570147 0.032074485
0000e0 6b 4b 71 3b 79 6f ca bc 2d 1a cf 3c 65 62 eb 3c
       0.0036818634 -0.024711357 0.025281036 0.028733442
0000f0 4f ce 5a 3c d0 90 bd bc 19 d5 16 bd 5c b9 8c bb
       0.013354852 -0.023140341 -0.03682432 -0.0042945575
000100 a9 ba c5 bb 9f 50 28 bc 24 a8 cc bb bb 1b 24 bc
       -0.0060342145 -0.010273128 -0.00624563 -0.010016377
000110 03 75 e5 bb 73 df 05 3c 90 22 01 bc f1 b2 75 bc
       -0.0070024743 0.00817095 -0.0078817755 -0.014996276
000120 73 b6 2a bd 99 b7 cb bc 53 be cf 3c ba 2d f1 3a
       -0.041677903 -0.02486782 0.025359308 0.0018400468
000130 b4 5a 99 3b 75 4b d7 bb bd f6 34 3c 06 aa 2f 3c
       0.004680002 -0.0065702745 0.011045155 0.010721689
000140 aa 95 c0 bc 94 46 15 3c 64 d1 3a 3c b9 bc 01 bd
       -0.023508865 0.009111065 0.011402462 -0.03167412
000150 df 05 08 3d ea e0 8f bc b6 6e 02 3d 14 be c4 bb
       0.033208724 -0.017563302 0.031843863 -0.0060041044
000160 f9 fa 0e bd 01 64 05 bd af 4f e4 3c 33 d9 0a 3d
       -0.034907315 -0.032566074 0.027870027 0.033898544
000170 2a bf d8 bc 11 2b 12 bd b4 13 d6 3c 41 83 03 3d
       -0.026458342 -0.035685603 0.026132442 0.032107595
000180 ae ed 77 3b 7d 1b 3f bc 8d 0c de bb ee 49 a4 3c
       0.0037830877 -0.011664269 -0.0067763985 0.020054784
000190 35 8d 85 3c 1d 06 64 bc 7b 48 be 3c c0 bd 64 bc
       0.016302684 -0.013917473 0.02322792 -0.013961256
0001a0 f4 cc 00 bc 01 87 24 bd 8d 9d 9f 3c 76 61 63 bb
       -0.007861365 -0.040167812 0.019484306 -0.0034695542
0001b0 07 bb 15 3c 9d 19 46 3b fb 80 72 bc 64 13 77 3b
       0.009138829 0.003022767 -0.014801259 0.0037700767
0001c0 b7 d2 89 bb bb 92 d2 3b 5a 9b 1e 39 a7 58 cd 3b
       -0.0042060274 0.006426183 0.00015125927 0.0062666717
0001d0 de 9e 5f bc bd 8e 25 bb 56 51 a0 3b 8f 5c 06 bd
       -0.013648717 -0.002526208 0.0048925085 -0.032803115
0001e0 54 ff f8 3c 28 77 38 bb 9a 57 ee bc df c6 0c bd
       0.030395187 -0.0028147195 -0.029094506 -0.034369346
0001f0 f6 cc 0c 3c 31 45 fa bc 65 b9 04 3d 1e 0a 08 bd
       0.008593788 -0.030550571 0.03240337 -0.033212774
000200 bd 1c c7 3c 4c db 08 3c 50 f8 ca bc ee 3e 41 3c
       0.024305696 0.008353066 -0.024776608 0.011794789
000210 27 e4 a8 bc c1 09 16 3d 69 5b c4 bc ae d3 be bc
       -0.020616604 0.036630396 -0.023969369 -0.023294296
000220 c3 24 d0 3c 7a 4a 11 bd 2d e5 da bc aa 11 c9 bc
       0.025408154 -0.035471417 -0.026720608 -0.024544556
000230 2e 3a 29 3b ee 2e a8 bc 32 65 06 bd 16 7a b9 bb
       0.0025822031 -0.02053019 -0.03281135 -0.0056603057
000240 5b c1 b4 bc 93 7e 3f 3b 7f a0 85 3c 60 62 86 3c
       -0.022064855 0.0029219731 0.016311882 0.01640433
000250 72 e6 ad bc 28 61 ac bc 10 98 58 3c 3f 07 a4 3c
       -0.021228049 -0.021042421 0.013219848 0.020022986
000260 ea 1f 45 3c 70 98 b1 bc 93 28 00 3c 1e cf b8 3c
       0.012031535 -0.021679133 0.007822174 0.022559699
000270 82 ad ea bc 46 44 12 bc 7f c3 8b 3c d9 d8 46 3c
       -0.028647188 -0.0089274105 0.017060993 0.012136661
000280 fb b3 7f 3a 8d 76 02 3d 75 7d 92 3b 4f 51 5e bc
       0.0009754297 0.03185134 0.004470522 -0.01356919
000290 2b 6c cc 3c af 5a b7 bc ae 0d b7 3b 71 67 e1 bc
       0.024953922 -0.022382108 0.0055863475 -0.027515145
0002a0 97 8a 12 bd 31 fd 12 bb 1d 21 e2 bc 26 55 cd bb
       -0.0357767 -0.0022428746 -0.02760368 -0.006266254
0002b0 79 d9 b3 bc 18 76 d8 3c a6 4f af 3c 79 05 9c bc
       -0.021954285 0.026423499 0.021400284 -0.019045578
0002c0 8b c3 4d bc c8 ab cf 3b 70 ef dc 3c 36 bc c1 bc
       -0.012558828 0.0063376166 0.026969641 -0.023649316
0002d0 4a 52 a5 3c 66 72 c7 3c e5 c3 e9 bc 23 12 ba bc
       0.02018084 0.024346542 -0.028535793 -0.022713726
0002e0 6a fd 32 3c 2c 95 2a 3c bd de e2 bc cb ea 20 3c
       0.010924676 0.010411542 -0.0276941 0.009821604
0002f0 47 38 1d bd 3b 46 6a 3c 24 4e 01 bd 07 27 f4 3c
       -0.03838375 0.014298971 -0.03156866 0.029803766
